#loc = loc("/host/code/mingfa-w/triton-shared/mingfa-w/test/swiglu.py":8:0)
module {
  tt.func public @_fg_kernel(%arg0: !tt.ptr<f32> {tt.divisibility = 16 : i32} loc("/host/code/mingfa-w/triton-shared/mingfa-w/test/swiglu.py":8:0), %arg1: !tt.ptr<f32> {tt.divisibility = 16 : i32} loc("/host/code/mingfa-w/triton-shared/mingfa-w/test/swiglu.py":8:0), %arg2: !tt.ptr<f32> {tt.divisibility = 16 : i32} loc("/host/code/mingfa-w/triton-shared/mingfa-w/test/swiglu.py":8:0), %arg3: i32 {tt.divisibility = 16 : i32} loc("/host/code/mingfa-w/triton-shared/mingfa-w/test/swiglu.py":8:0)) attributes {noinline = false} {
    %cst = arith.constant dense<1.000000e+00> : tensor<1024xf32> loc(#loc1)
    %cst_0 = arith.constant dense<0.000000e+00> : tensor<1024xf32> loc(#loc1)
    %c1024_i32 = arith.constant 1024 : i32 loc(#loc1)
    %0 = tt.get_program_id x : i32 loc(#loc2)
    %1 = arith.muli %0, %c1024_i32 : i32 loc(#loc3)
    %2 = tt.make_range {end = 1024 : i32, start = 0 : i32} : tensor<1024xi32> loc(#loc4)
    %3 = tt.splat %1 : i32 -> tensor<1024xi32> loc(#loc5)
    %4 = arith.addi %3, %2 : tensor<1024xi32> loc(#loc5)
    %5 = tt.splat %arg3 : i32 -> tensor<1024xi32> loc(#loc6)
    %6 = arith.cmpi slt, %4, %5 : tensor<1024xi32> loc(#loc6)
    %7 = tt.splat %arg0 : !tt.ptr<f32> -> tensor<1024x!tt.ptr<f32>> loc(#loc7)
    %8 = tt.addptr %7, %4 : tensor<1024x!tt.ptr<f32>>, tensor<1024xi32> loc(#loc7)
    %9 = tt.load %8, %6, %cst_0 : tensor<1024x!tt.ptr<f32>> loc(#loc8)
    %10 = tt.splat %arg1 : !tt.ptr<f32> -> tensor<1024x!tt.ptr<f32>> loc(#loc9)
    %11 = tt.addptr %10, %4 : tensor<1024x!tt.ptr<f32>>, tensor<1024xi32> loc(#loc9)
    %12 = tt.load %11, %6, %cst_0 : tensor<1024x!tt.ptr<f32>> loc(#loc10)
    %13 = arith.subf %cst_0, %9 : tensor<1024xf32> loc(#loc21)
    %14 = math.exp %13 : tensor<1024xf32> loc(#loc22)
    %15 = arith.addf %14, %cst : tensor<1024xf32> loc(#loc23)
    %16 = arith.divf %cst, %15 : tensor<1024xf32> loc(#loc24)
    %17 = arith.mulf %9, %16 : tensor<1024xf32> loc(#loc16)
    %18 = arith.mulf %17, %12 : tensor<1024xf32> loc(#loc17)
    %19 = tt.splat %arg2 : !tt.ptr<f32> -> tensor<1024x!tt.ptr<f32>> loc(#loc18)
    %20 = tt.addptr %19, %4 : tensor<1024x!tt.ptr<f32>>, tensor<1024xi32> loc(#loc18)
    tt.store %20, %18, %6 : tensor<1024x!tt.ptr<f32>> loc(#loc19)
    tt.return loc(#loc20)
  } loc(#loc)
} loc(#loc)
#loc1 = loc(unknown)
#loc2 = loc("/host/code/mingfa-w/triton-shared/mingfa-w/test/swiglu.py":9:30)
#loc3 = loc("/host/code/mingfa-w/triton-shared/mingfa-w/test/swiglu.py":10:24)
#loc4 = loc("/host/code/mingfa-w/triton-shared/mingfa-w/test/swiglu.py":10:50)
#loc5 = loc("/host/code/mingfa-w/triton-shared/mingfa-w/test/swiglu.py":10:37)
#loc6 = loc("/host/code/mingfa-w/triton-shared/mingfa-w/test/swiglu.py":11:21)
#loc7 = loc("/host/code/mingfa-w/triton-shared/mingfa-w/test/swiglu.py":13:24)
#loc8 = loc("/host/code/mingfa-w/triton-shared/mingfa-w/test/swiglu.py":13:20)
#loc9 = loc("/host/code/mingfa-w/triton-shared/mingfa-w/test/swiglu.py":14:24)
#loc10 = loc("/host/code/mingfa-w/triton-shared/mingfa-w/test/swiglu.py":14:20)
#loc11 = loc("/host/code/mingfa-w/triton-shared/triton/python/triton/language/standard.py":47:30)
#loc12 = loc("/host/code/mingfa-w/triton-shared/mingfa-w/test/swiglu.py":17:31)
#loc13 = loc("/host/code/mingfa-w/triton-shared/triton/python/triton/language/standard.py":47:29)
#loc14 = loc("/host/code/mingfa-w/triton-shared/triton/python/triton/language/standard.py":47:20)
#loc15 = loc("/host/code/mingfa-w/triton-shared/triton/python/triton/language/standard.py":47:16)
#loc16 = loc("/host/code/mingfa-w/triton-shared/mingfa-w/test/swiglu.py":17:20)
#loc17 = loc("/host/code/mingfa-w/triton-shared/mingfa-w/test/swiglu.py":20:20)
#loc18 = loc("/host/code/mingfa-w/triton-shared/mingfa-w/test/swiglu.py":23:17)
#loc19 = loc("/host/code/mingfa-w/triton-shared/mingfa-w/test/swiglu.py":23:26)
#loc20 = loc("/host/code/mingfa-w/triton-shared/mingfa-w/test/swiglu.py":23:4)
#loc21 = loc(callsite(#loc11 at #loc12))
#loc22 = loc(callsite(#loc13 at #loc12))
#loc23 = loc(callsite(#loc14 at #loc12))
#loc24 = loc(callsite(#loc15 at #loc12))